model/model_dataset4.pt (torch, 7559 bytes, 10 tensors)

weight_ih_l0 f4 [8, 1]
00000000: 1b84 7a3c a84a b63d c94a c6bd 3199 033e
00000010: f6d7 a73e d6e9 93be 853d 0fbe c5bb 6abe
0.015290285 0.08900958 -0.09682233 0.12851407 0.32781953 -0.2888934 -0.13988312 -0.22923191

weight_hh_l0 f4 [8, 8]
00000000: 1b8e 6cbf b9e4 433e e784 5a3f e57c 853e
00000010: 38c3 893e f67d 013f 6749 d53d 20d6 f0bc
00000020: daff abbe e6b7 9bbe 1bf4 21be f70f 3fbe
00000030: d5cf 82be 9033 663e 293f c13e 29bc 893e
00000040: 40dd 95be 79c1 083f ccea efbd 9bc3 4bbc
00000050: 9a70 6b3e 83ca c6be 439b 753e 9a8b 5abe
00000060: 888c 91bc db67 013c 406f 383e d5cd 3cbf
00000070: 1898 42bf 67df b63c 7985 90bf 835f f5bc
00000080: 9f58 4ebd 7aff e73d d79f 88be 7d12 ae3e
00000090: c5e7 24be f98c 143e 1dcb fd3e 0a59 733e
000000a0: c5f2 eabe 110a fdbd 1d0d 0e3f 2596 933d
000000b0: aa8b 983e 8e41 613e 3e40 383d 34fd 413f
000000c0: c4bf 06bd a300 7fbc 285e 5abd 0c3d 393f
000000d0: 2835 103f aed6 79bd 18b3 15bf 14e1 e33e
000000e0: ab61 8f3e e3de b73d 2899 50be e25e 983e
000000f0: c47a d33e 059d 85bf 0883 8b3e 7915 86bf
-0.92404336 0.1913022 0.8535904 0.2607185 0.26906753 0.50582826 0.10414391 -0.029398978
-0.33593637 -0.3041374 -0.15815775 -0.18658434 -0.25549188 0.22480607 0.377435 0.26901367
-0.29270363 0.53420216 -0.11714706 -0.012436773 0.22992173 -0.3882638 0.23985009 -0.21342316
-0.017767206 0.007898296 0.18011189 -0.73751575 -0.76013327 0.022323323 -1.1290733 -0.02995277
-0.050377484 0.11328025 -0.26684448 0.3399848 -0.16104038 0.14506902 0.49569026 0.23764434
-0.45888343 -0.12355436 0.5548876 0.07206372 0.29794055 0.21997663 0.04498314 0.7577698
-0.032897726 -0.015564117 -0.05331245 0.72358775 0.5633111 -0.06099575 -0.584764 0.44507658
0.28004202 0.08978059 -0.20370924 0.2975989 0.413046 -1.0438544 0.27248406 -1.0475303

bias_ih_l0 f4 [8]
00000000: 8cc8 9a3d d012 31be 995c bc3d e40d 9dbe
00000010: 644a 80be d14f dcbe 563a f53d 31cd 4fbe
0.075577825 -0.17292333 0.09197349 -0.3067466 -0.25056756 -0.43029645 0.11974017 -0.20293118

bias_hh_l0 f4 [8]
00000000: c4fb ac3e 8103 673e f2ff 68be c22c 213c
00000010: ab1e 12be d5a6 16bd c037 7a3d 90be 9bbe
0.33785832 0.2255993 -0.22753885 0.009837331 -0.14269511 -0.036780197 0.061088324 -0.30418825

weight_ih_l1 f4 [8, 8]
00000000: ee45 30bd 13c7 0f3e 76cb 31be b08c 6b3e
00000010: c988 68bb e0a1 fc3d 1702 053e 8204 fabe
00000020: 046e 83bd b3b0 fe3d a793 913d fb71 463f
00000030: 59d9 1fbf fe25 9ebe 5b68 0b3f 0131 f7be
00000040: 7879 803f e857 96bc 099d a83e cab6 32bf
00000050: ab87 8b3d 4c76 93be a884 b6bd 97a4 0a3f
00000060: b0cd be3b ff2f 22bd e829 1b3d b007 17bb
00000070: e724 083e 30e8 43be ce04 a13d 956a 1e3e
00000080: 3889 1b3d 6ab1 09bf ff12 793e bfa2 0e3f
00000090: ac61 aabe 028a efbe 04c0 393f 381f 9d3f
000000a0: 761b 88be 169d 4a3e f99e 8e3e f03b b23d
000000b0: 1235 24bd a055 f3bd 2c77 dfbe 96b4 9cbd
000000c0: c095 d0be 9ad3 393e 9a98 9e3c d24a 1abe
000000d0: 9462 583e 2ca5 f43b c0a6 e7be b23b 0f3d
000000e0: 47a3 e2bd d856 483c cc9e d53e fa3b dfbd
000000f0: 81ee 45bd 891b f8bd da1f efbe 0462 973e
-0.04303544 0.14040785 -0.1736277 0.23002887 -0.003548192 0.12335563 0.12989078 -0.48831564
-0.06417468 0.124360465 0.071082406 0.7751767 -0.6244102 -0.3088836 0.5445611 -0.48279575
1.0037069 -0.018352464 0.32932308 -0.69810164 0.06812986 -0.2880119 -0.08912021 0.54157394
0.0058228597 -0.039596554 0.03788176 -0.0023045354 0.13295327 -0.19131541 0.078622445 0.15470345
0.03797266 -0.5378634 0.24323653 0.5571708 -0.33277643 -0.4678498 0.7255862 1.2275152
-0.2658345 0.19786486 0.27855662 0.087028384 -0.040089674 -0.11881566 -0.43645608 -0.076516315
-0.4073925 0.18147126 0.019359875 -0.15067604 0.21131355 0.007465979 -0.45244408 0.03496904
-0.11066299 0.012227736 0.41722715 -0.109001115 -0.04832316 -0.12114627 -0.46703988 0.29566967

weight_hh_l1 f4 [8, 8]
00000000: b6a8 183f 0592 66be d9ac 1d3e e9d4 6cbe
00000010: 30f2 813e 4fa7 04bf 4573 eb3e 3d1d f13e
00000020: b393 013f b8aa 2d3f 33df 0f3e f28c 59bf
00000030: d841 f23d fce5 9bbe 6c95 293f cb5a 5f3e
00000040: 7939 fa3c 99e1 36be a76b 5d3c 8280 16bf
00000050: 05cd 2cbe 7fd2 a8be c55e acbe 028d 4bbd
00000060: 5965 d5be afea a3be bb89 1abc e544 0a3f
00000070: bdec 583c 5ba7 d83c 52a8 b2be 4b24 2b3e
00000080: 21b1 233e a96b d63d 2723 82be 7dad 6fbe
00000090: 496e 3dbe 1dff d63d 3941 df3d 0751 93bd
000000a0: 86af 1dbe 97bd 02be d877 f4bc dd0c 92be
000000b0: 1d6b 3a3e 982c c73e 0b19 c23c e5d9 f3be
000000c0: 00b4 04be e2fd b43b 4a06 803e a8cb 66be
000000d0: 4974 9b3e 157c 10bf 3244 a73e e0b1 c13e
000000e0: 9fe1 503e c4f7 96bd 0634 83be fa60 bc3e
000000f0: 7234 1cbe 5cbb aebe ed63 943e c7fb 893e
0.5963243 -0.2251664 0.15397967 -0.23128094 0.25380087 -0.5181779 0.4598638 0.4709262
0.50615996 0.6783862 0.14049987 -0.8498069 0.11828965 -0.30448902 0.66243625 0.21811979
0.030544983 -0.17859496 0.013514436 -0.5878984 -0.16875084 -0.32973096 -0.33666053 -0.049695022
-0.41678885 -0.32014987 -0.009432252 0.54011375 0.013240037 0.026446989 -0.34894043 0.16713063
0.15985538 0.10469753 -0.25417444 -0.23406024 -0.18499102 0.10497878 0.10901112 -0.07193189
-0.15398988 -0.12767635 -0.029842302 -0.2852544 0.18204923 0.3890121 0.023693582 -0.47627178
-0.1295929 0.0055234293 0.25004798 -0.22538626 0.30362156 -0.56439334 0.32669216 0.3783102
0.20398568 -0.07371476 -0.25625628 0.36792737 -0.15254381 -0.3412732 0.28982487 0.26949903

bias_ih_l1 f4 [8]
00000000: c6df 3abe 22f3 7ebc 8a59 dbbd 2d3c 64be
00000010: 935f cfbe e993 aabe 676d 763e d4eb 993d
-0.18249425 -0.015560897 -0.107104376 -0.2228858 -0.40502605 -0.33315971 0.24065171 0.07515684

bias_hh_l1 f4 [8]
00000000: 18ff b8be 9c0f 193f ea62 a5bd 29da c33e
00000010: e858 783d 647e ef3d f605 6f3e 907c 99be
-0.3613212 0.59789443 -0.08075507 0.3825238 0.060631663 0.11694029 0.23342118 -0.29977846

weight f4 [2, 8]
00000000: 138c adbe 3cd6 41be 453c 98bd dbdc 84bd
00000010: d5bf 87bc dd50 603e 4154 4fbe 9ba8 85be
00000020: 79ae f13f 6734 f93f 7220 e83f ff3f c0c0
00000030: 72c4 9e3f 5370 3640 836b 1540 586d 2cc0
-0.3389593 -0.1892938 -0.074333705 -0.06487437 -0.016570965 0.21905847 -0.20246984 -0.26105198
1.888137 1.9469117 1.8134902 -6.007812 1.24037 2.8506057 2.334687 -2.6941738

bias f4 [2]
00000000: 8f5c 0b3d 5276 73be
0.034023818 -0.23775604
