model/ugrp_traced_model_loss123_20_cpu_.pt (torch, 8112 bytes, 10 tensors)

weight_ih_l0 f4 [8, 1]
0	0xbd996124	-0.07489231
1	0xbee6047d	-0.449253
2	0xbd8e6fe8	-0.06954938
3	0xbea14417	-0.3149726
4	0xbe58a7cb	-0.21157758
5	0x3df4549b	0.119302
6	0x3e8272bb	0.25478157
7	0xbe87b958	-0.26508594

weight_hh_l0 f4 [8, 8]
0	0x3d72f7e1	0.059318427
1	0xbe48e30d	-0.19617863
2	0xbe9a5fe9	-0.301513
3	0xbe02b68c	-0.12764949
4	0x3e177734	0.14791566
5	0xbd4e7500	-0.05040455
6	0xbe3161b5	-0.17322429
7	0x3f09210c	0.5356605
8	0x3b9b4897	0.004738878
9	0x3ed23b2d	0.41060773
10	0xbdad9c81	-0.084771164
11	0x3f2686ca	0.6504942
12	0x3e91d671	0.28483918
13	0x3dc133bb	0.09433695
14	0x3e36fd8e	0.17870161
15	0xbbee0bf8	-0.0072646104
16	0xbef0ea8b	-0.47053942
17	0xbeb1536e	-0.34633964
18	0xbf6caeb1	-0.9245406
19	0x3e90b988	0.2826655
20	0xbd0f8d1a	-0.035046674
21	0xbf129688	-0.5726094
22	0x3e573149	0.21014895
23	0x3e8558e5	0.26044384
24	0x3cad37ef	0.021144835
25	0x3e5e5dd3	0.21715479
26	0xbd98bbb8	-0.074576795
27	0x3c7bcffe	0.015369413
28	0x3ee834b1	0.453527
29	0xbd21096e	-0.039315633
30	0xbd17be88	-0.03704694
31	0xbe11a1a1	-0.14221813
32	0x3d80e445	0.06293539
33	0x3e38bc7c	0.18040651
34	0xbe30e5e5	-0.17275198
35	0x3e4f2757	0.2022985
36	0xbe8880ca	-0.26660758
37	0xbcd12901	-0.025532247
38	0x3e47e34f	0.19520305
39	0x3e901023	0.2813731
40	0xbe60800d	-0.21923847
41	0xbdd681fd	-0.10474012
42	0x3eeb4f17	0.45958778
43	0x3d20d446	0.03926494
44	0x3e83c374	0.25735056
45	0xbf60c05a	-0.87793505
46	0xbe8ff102	-0.28113562
47	0x3f0df632	0.5545379
48	0x3ea49317	0.3214347
49	0x3e2a2e9b	0.16619341
50	0xbd0dab31	-0.03458709
51	0xbe4068a9	-0.18789925
52	0x3ebd972f	0.37029406
53	0xbdfb5ee1	-0.12273956
54	0xbea3baae	-0.31978363
55	0xbef55bb7	-0.47921535
56	0xbef9ee2e	-0.4881453
57	0xbea613b7	-0.32436916
58	0xbedc906a	-0.4307893
59	0xbe4baf3f	-0.1989107
60	0x3e55a831	0.20864941
61	0xbe2397c9	-0.1597587
62	0x3ea4cc12	0.32186943
63	0xbee9fd58	-0.45701098

bias_ih_l0 f4 [8]
0	0x3dc3d5f8	0.09562296
1	0x3ccd5fe7	0.025070144
2	0xbe393669	-0.18087162
3	0xbe85e460	-0.261508
4	0x3d9e1c17	0.077202015
5	0x3e12a53a	0.14320841
6	0x3da6ac7a	0.08138366
7	0x3dcd2a4f	0.10017835

bias_hh_l0 f4 [8]
0	0xbda48efd	-0.08035085
1	0x3d22e13a	0.039765574
2	0x3d54149a	0.05177746
3	0x3eb1eefc	0.34752643
4	0x3e4aa7d9	0.19790591
5	0xbe5430a7	-0.20721684
6	0xbc7d9bd1	-0.015479044
7	0xbdf2e946	-0.118608996

weight_ih_l1 f4 [8, 8]
0	0x3ebd37d6	0.36956662
1	0xbe9f92ce	-0.3116669
2	0x3e0e183b	0.1387643
3	0xbef7be0d	-0.48387185
4	0xbef71325	-0.48256794
5	0xbd5a4d50	-0.053296387
6	0x3db11ed9	0.08648462
7	0xbe447b80	-0.19187737
8	0xbd82801a	-0.0637209
9	0xbedc4680	-0.43022537
10	0xbe547287	-0.20746814
11	0xbe8189cf	-0.25300452
12	0x3cb687b3	0.022281503
13	0xbe3ecf9a	-0.18633881
14	0x3eac4e6a	0.33653575
15	0xbe65a93f	-0.22427844
16	0x3e19d487	0.15022479
17	0xbd0590a8	-0.032608658
18	0x3d827cdb	0.063714705
19	0x3e626889	0.2211019
20	0x3e276d81	0.16350366
21	0x3e685859	0.22689952
22	0x3dca2741	0.09870768
23	0xbd5a2125	-0.053254265
24	0x3e6e58c5	0.2327605
25	0xbebc815d	-0.36817446
26	0xbe19bd71	-0.15013672
27	0x3e0648a2	0.13113645
28	0x3d97ad38	0.07406086
29	0xbd45d7e0	-0.048301578
30	0x3e2001ea	0.1562573
31	0x3e537ab5	0.20652278
32	0xbde099a2	-0.10966803
33	0xbe31d886	-0.17367753
34	0xbc9e2e15	-0.019309083
35	0xbe52ad39	-0.20573892
36	0x3e10f333	0.14155273
37	0xbb8fa3a5	-0.0043835216
38	0xbd176e29	-0.03697029
39	0x3d4bb903	0.049736988
40	0xbe1b17f6	-0.15145859
41	0xbeda2e90	-0.4261365
42	0xbcaa39a3	-0.020779436
43	0x3ea4835b	0.32131466
44	0x3d2fedcd	0.042951394
45	0xbcad1c01	-0.021131517
46	0x3db944c0	0.09046316
47	0xbc3b928e	-0.011448516
48	0xbcef7179	-0.029228913
49	0x3ebfc41b	0.37454304
50	0xbdce11b7	-0.100619726
51	0x3e4473d0	0.19184804
52	0x3e506a68	0.20353091
53	0xbebf38fb	-0.3734816
54	0xbd232cce	-0.03983765
55	0xbe2abb13	-0.16672926
56	0xbe0395bd	-0.1285009
57	0x3e0faa19	0.14029731
58	0xbdde5aa8	-0.10857135
59	0x3e53818c	0.20654887
60	0x3e481b15	0.19541581
61	0xbe1c2102	-0.15246966
62	0xbe43da40	-0.19126225
63	0xbe11a299	-0.14222182

weight_hh_l1 f4 [8, 8]
0	0x3e577798	0.21041715
1	0xbe18789c	-0.14889759
2	0xbea5d5cd	-0.3238968
3	0x3ea6c81a	0.3257454
4	0x3ddc4d42	0.10756923
5	0x3d8433a8	0.06455165
6	0xbe686d91	-0.22698046
7	0xbece29a0	-0.40266132
8	0xbe06a796	-0.13149866
9	0x3ec85163	0.39124593
10	0x3e752e3d	0.2394342
11	0xbe9807dd	-0.296935
12	0xbe8a0cb7	-0.26962826
13	0x3e991952	0.2990213
14	0xbf38b17f	-0.7214584
15	0x3db51030	0.08840978
16	0x3dd3f3f5	0.103492655
17	0xbde5a84e	-0.11213742
18	0x3f3f7116	0.7478193
19	0xbecd4bd1	-0.40096906
20	0xbda00465	-0.07813338
21	0xbf2bc311	-0.6709452
22	0x3eb8bc6a	0.3608125
23	0x3eb087a4	0.34478486
24	0x3dfee066	0.12445144
25	0x3da66014	0.08123794
26	0xbf3ecd7c	-0.74532294
27	0x3ef00a99	0.46883085
28	0xbe30668f	-0.17226623
29	0x3eeb536f	0.45962092
30	0xbe7a7519	-0.24458732
31	0xbdeae2bb	-0.11469027
32	0x3ebc2e37	0.3675401
33	0x3d74ea95	0.059794027
34	0xbdc64d26	-0.09682684
35	0xbb5d0a7d	-0.0033728175
36	0x3f810cb1	1.0081998
37	0xbe6d4b0b	-0.23173158
38	0x3ebb0120	0.36524296
39	0xbeff9481	-0.49917987
40	0x3d512a99	0.051066015
41	0x3f36bb18	0.7137923
42	0xbee34a7a	-0.4439276
43	0x3e88f683	0.26750574
44	0xbeb3dd6b	-0.35129866
45	0x3f4f6a68	0.8102174
46	0xbecf8b31	-0.40535882
47	0x3e15331a	0.14570275
48	0x3dd961b6	0.1061434
49	0xbefb02df	-0.49025628
50	0xbe84bc4b	-0.25924906
51	0x3de15dd6	0.11004226
52	0x3f0d54b1	0.55207354
53	0x3dd949cd	0.106097795
54	0x3f2a18cb	0.6644408
55	0xbe7d4ea0	-0.24737024
56	0xbf1427aa	-0.5787302
57	0x3e4bd178	0.19904125
58	0x3e8cf45a	0.27530175
59	0xbe51b7e9	-0.20480312
60	0xbea46725	-0.32109943
61	0xbea11b7b	-0.31466278
62	0x3de11770	0.109907985
63	0x3ee3bfce	0.44482273

bias_ih_l1 f4 [8]
0	0xbe1cce9a	-0.15313187
1	0x3d859a97	0.06523626
2	0x3e2e297a	0.1700801
3	0xbda38344	-0.07984021
4	0x3d4e161f	0.050314065
5	0x3e648f71	0.22320344
6	0xbdfd126a	-0.12357028
7	0x3dcf003e	0.10107468

bias_hh_l1 f4 [8]
0	0xbe083c12	-0.13304165
1	0x3d55c102	0.05218602
2	0xbe2ca2da	-0.16858998
3	0x3df5ce5f	0.12002253
4	0xbdd5cd0f	-0.104395024
5	0xbdf72a6c	-0.12068638
6	0x3ea948d2	0.3306337
7	0xbdb9e481	-0.09076787

weight f4 [2, 8]
0	0xbc058d6c	-0.008151393
1	0xbd1b976f	-0.037986215
2	0x3df285f0	0.11841953
3	0xbd0b99d1	-0.034082238
4	0xbdecdf97	-0.11566084
5	0xbcb82959	-0.022480654
6	0xbdd7541a	-0.10514088
7	0x3d7e899d	0.062142957
8	0xbf06a757	-0.5259909
9	0xbfbc690c	-1.4719558
10	0x3e8d604c	0.2761253
11	0xbeb52690	-0.35380983
12	0xbd89c9fa	-0.06727977
13	0xbf885393	-1.0650505
14	0x3f841c22	1.0321085
15	0x3e335d2c	0.17516011

bias f4 [2]
0	0xbd20b662	-0.039236434
1	0x3dc97b51	0.09837974
